…
Use `tf.distribute.MirroredStrategy` instead.
None
*** Building Jigsaw with up to 7x7 kernels
Model: "model"
__________________________________________________________________________________________________
Layer (type)                    Output Shape         Param #     Connected to                     
==================================================================================================
input_1 (InputLayer)            [(None, 25, 25, 12)] 0                                            
__________________________________________________________________________________________________
conv2d_1 (Conv2D)               (None, 25, 25, 96)   1248        input_1[0][0]                    
__________________________________________________________________________________________________
conv2d_3 (Conv2D)               (None, 25, 25, 16)   208         input_1[0][0]                    
__________________________________________________________________________________________________
conv2d_5 (Conv2D)               (None, 25, 25, 16)   208         input_1[0][0]                    
__________________________________________________________________________________________________
max_pooling2d (MaxPooling2D)    (None, 25, 25, 12)   0           input_1[0][0]                    
__________________________________________________________________________________________________
conv2d (Conv2D)                 (None, 25, 25, 256)  3328        input_1[0][0]                    
__________________________________________________________________________________________________
conv2d_2 (Conv2D)               (None, 25, 25, 128)  110720      conv2d_1[0][0]                   
__________________________________________________________________________________________________
conv2d_4 (Conv2D)               (None, 25, 25, 128)  51328       conv2d_3[0][0]                   
__________________________________________________________________________________________________
conv2d_6 (Conv2D)               (None, 25, 25, 128)  100480      conv2d_5[0][0]                   
__________________________________________________________________________________________________
conv2d_7 (Conv2D)               (None, 25, 25, 32)   416         max_pooling2d[0][0]              
__________________________________________________________________________________________________
flatten_1 (Flatten)             (None, 7500)         0           input_1[0][0]                    
__________________________________________________________________________________________________
concatenate (Concatenate)       (None, 25, 25, 672)  0           conv2d[0][0]                     
                                                                 conv2d_2[0][0]                   
                                                                 conv2d_4[0][0]                   
                                                                 conv2d_6[0][0]                   
                                                                 conv2d_7[0][0]                   
__________________________________________________________________________________________________
dense_1 (Dense)                 (None, 16)           120016      flatten_1[0][0]                  
__________________________________________________________________________________________________
avg_pooling (AveragePooling2D)  (None, 23, 23, 672)  0           concatenate[0][0]                
__________________________________________________________________________________________________
dropout_1 (Dropout)             (None, 16)           0           dense_1[0][0]                    
__________________________________________________________________________________________________
flatten (Flatten)               (None, 355488)       0           avg_pooling[0][0]                
__________________________________________________________________________________________________
dense_2 (Dense)                 (None, 16)           272         dropout_1[0][0]                  
__________________________________________________________________________________________________
dense (Dense)                   (None, 16)           5687824     flatten[0][0]                    
__________________________________________________________________________________________________
dropout_2 (Dropout)             (None, 16)           0           dense_2[0][0]                    
__________________________________________________________________________________________________
dropout (Dropout)               (None, 16)           0           dense[0][0]                      
__________________________________________________________________________________________________
concatenate_1 (Concatenate)     (None, 32)           0           dropout_2[0][0]                  
                                                                 dropout[0][0]                    
__________________________________________________________________________________________________
dense_3 (Dense)                 (None, 32)           1056        concatenate_1[0][0]              
__________________________________________________________________________________________________
dropout_3 (Dropout)             (None, 32)           0           dense_3[0][0]                    
__________________________________________________________________________________________________
dense_4 (Dense)                 (None, 16)           528         dropout_3[0][0]                  
__________________________________________________________________________________________________
prob (Activation)               (None, 16)           0           dense_4[0][0]                    
==================================================================================================
Total params: 6,077,632
Trainable params: 6,077,632
Non-trainable params: 0
__________________________________________________________________________________________________

 1/21 [>.............................] - ETA: 0s - loss: 4.7183 - accuracy: 0.0530
…
